bitcoin_LatGNN/checkpoint/T_fin/best_0.pth (torch, 236973 bytes, 36 tensors)

fc_l.0.weight f4 [128, 10]
0	0x3daaf45c	0.08347389
1	0x3c4da364	0.012551162
2	0xbe52f345	-0.20600612
3	0xbe43e387	-0.19129764
4	0xbe2ca61a	-0.16860238
5	0x3f35ca10	0.7101145
6	0xbd170fcf	-0.03688031
7	0x3f4973d3	0.7869236
8	0x3f8d67c0	1.1047287
9	0x3f903679	1.1266624
10	0x3d40c580	0.04706335
11	0xbc49c2c0	-0.012314498
12	0xbebd016f	-0.36915156
13	0xbf08aa36	-0.5338472
14	0xbf8a752a	-1.0817006
15	0x3ce3843a	0.027773011
16	0xbec5de50	-0.38646173
17	0x3e527f4a	0.2055637
18	0xbd109da1	-0.035306577
19	0x3d7f474d	0.062323857
20	0xbe28dde9	-0.16490902
21	0x3e41ab10	0.18912911
22	0xbdfa94c1	-0.12235404
23	0x3c60c2df	0.013718336
24	0xbe8037de	-0.25042623
25	0xbcac6ea1	-0.021048846
26	0xbd17d65c	-0.037069663
27	0xbe84f888	-0.25970864
28	0x3e831019	0.2559822
29	0x3e97f153	0.29676303
30	0xbeb679cf	-0.35639808
31	0x3deb12e1	0.1147821
32	0xbed75aef	-0.42061564
33	0xbe9eaf6a	-0.30993205
34	0xbe9ea736	-0.30986947
35	0xbf06be5a	-0.52634203
36	0xbeaef325	-0.3416988
37	0x3cfaef0d	0.030631566
38	0x3e0e1c07	0.13877879
39	0x3e107c7a	0.14109984
40	0x3d50b414	0.050952986
41	0xbe6aef44	-0.22942835
42	0x3dcc908c	0.09988508
43	0xbe061044	-0.13092142
44	0xbfce2326	-1.6104476
45	0xbd823dc6	-0.063594386
46	0xbe44d921	-0.19223453
47	0x3e8e99b4	0.2785164
48	0x3f373d22	0.71577656
49	0x3f01b808	0.50671434
50	0x3d635912	0.055504866
51	0x3f1237dd	0.5711649
52	0x3ec15e68	0.3776734
53	0xbd3874a2	-0.045033105
54	0x3c130f90	0.008975878
55	0xbb41ce7f	-0.0029572544
56	0xbeb66dd7	-0.35630676
57	0x3d06cfa8	0.03291288
58	0x3eeb531c	0.45961845
59	0x3ec3853c	0.38187587
60	0xb968a5ea	-0.00022187052
61	0x3ea0233a	0.31276876
62	0xbe0bcf94	-0.13653404
63	0xbd65aed8	-0.056074947
64	0x3dbc942d	0.0920795
65	0x3c563930	0.013075158
66	0xbec6726b	-0.3875917
67	0x3e437da3	0.19090895
68	0x3f6759b4	0.9037125
69	0x3f5faf05	0.87376434
70	0x3caa334e	0.020776417
71	0xbe707dd3	-0.23485498
72	0x3e36e160	0.17859411
73	0xbf7595d2	-0.9593173
74	0x3e6a0dbe	0.22856805
75	0x3ebf6736	0.3738343
76	0x3d81e025	0.0634158
77	0xbf2677b4	-0.650264
78	0x40178af4	2.367856
79	0x4009b179	2.151457
80	0xbefabc65	-0.4897186
81	0xbe580108	-0.21094143
82	0xbd5f4198	-0.054505914
83	0xbe9b422a	-0.30323917
84	0x3cc51b3c	0.024060838
85	0xbe3ef4aa	-0.1864802
86	0x3c87f041	0.016594054
87	0xbede774a	-0.43450385
88	0x3c87cf63	0.016578382
89	0xbe8e2cb3	-0.27768478
90	0x3d374d42	0.044751413
91	0x3d0be4ff	0.034153935
92	0xbd30149b	-0.0429884
93	0xbd2400ce	-0.04003983
94	0xbee2126b	-0.44154677
95	0xbec74926	-0.38922995
96	0x3dd9e279	0.10638899
97	0xbdea3f7f	-0.11437892
98	0xbd0baa77	-0.034098115
99	0xbd88fc70	-0.06688774
100	0x3e46764a	0.19381061
101	0x3e1293bf	0.14314173
102	0xbe6969c5	-0.22794254
103	0xbe2ee23a	-0.17078486
104	0xbed0415b	-0.40674862
105	0x3ae1a3cf	0.0017214956
106	0xbe9c4472	-0.3052097
107	0xbe6ac7b5	-0.22927745
108	0x3f377ffb	0.7167966
109	0x3f2e629d	0.6811922
110	0xbebf94db	-0.37418255
111	0xbea0bc87	-0.31393835
112	0xbf14831b	-0.5801255
113	0x3e4b3bc1	0.19847013
114	0x3dee5d69	0.1163891
115	0xbe9f5053	-0.3111597
116	0x3d250973	0.040292215
117	0xbe3fbc05	-0.18724068
118	0xbd1dc905	-0.038521785
119	0xbcc7b829	-0.024379807
120	0x3d43a9bd	0.047769297
121	0x3d5d705b	0.05406223
122	0xbe9fbeb5	-0.31200185
123	0x3e0260ac	0.1273219
124	0xbedae6cb	-0.42754206
125	0xbeb1ed15	-0.34751192
126	0xbe5a4c9c	-0.21318287
127	0xbea00408	-0.31253076
128	0xbe6fb708	-0.23409665
129	0xbeba3392	-0.3636747
130	0xbeab37ea	-0.33441097
131	0x3d35de87	0.04440167
132	0x3e45217b	0.19251053
133	0x3d4d921a	0.05018816
134	0x3d8f1c7b	0.06987854
135	0x3e955f7c	0.2917441
136	0x3ba37831	0.004988693
137	0x3ed6e38f	0.41970488
138	0x3f01de36	0.5072969
139	0x3f1e6926	0.61879194
140	0x3ed641f0	0.4184718
141	0x3bd79283	0.006578745
142	0x3f677b57	0.90422577
143	0x3f51d1c2	0.8196069
144	0xbe675d4f	-0.22594188
145	0x3e0b4467	0.13600312
146	0x3e71c8d7	0.2361177
147	0x3e8777ba	0.26458532
148	0x3fc5d384	1.5455174
149	0x3fabbb8c	1.341661
150	0xbe85614b	-0.2605079
151	0xbe99fd7d	-0.3007621
152	0x3ef1f040	0.4725361
153	0x3d9ea379	0.07746024
154	0xbdb6cb06	-0.089254424
155	0xbe7f6475	-0.24940665
156	0xbeb44a0c	-0.35212743
157	0xbd007bcb	-0.03136806
158	0xbdc71c89	-0.097222395
159	0xbe054965	-0.13016279
160	0x3b7c332a	0.0038482645
161	0xbd2d2bbc	-0.042278036
162	0xbea1b2c1	-0.3158169
163	0xbe94b124	-0.29041398
164	0xbed38cb4	-0.41318285
165	0x3d9e8523	0.077402376
166	0xbf111e70	-0.5668707
167	0x3e45805b	0.19287245
168	0xbf2e2b96	-0.68035257
169	0xbec8acf1	-0.39194444
170	0x3e026b8c	0.12736338
171	0xbd96b5db	-0.07358905
172	0x3ecff89e	0.40619367
173	0x3ec8adbd	0.39195052
174	0xbf180a9f	-0.59391207
175	0xbd572685	-0.05252697
176	0xbeee3620	-0.4652567
177	0xbeb64e99	-0.3560684
178	0x3dc41733	0.095747374
179	0xbec243e0	-0.3794241
180	0x3cab9087	0.02094294
181	0xbd12fb4b	-0.035884183
182	0x3e7fda4b	0.24985616
183	0x3d847b66	0.06468849
184	0x3e7fae2a	0.24968782
185	0x3e5daf84	0.21648985
186	0xbd9e1a40	-0.077198505
187	0x3d1c5a6a	0.038172163
188	0x3f57881c	0.8419206
189	0x3f8d1d4f	1.1024569
190	0x3e0ca48e	0.13734648
191	0x3e14d59c	0.1453461
192	0xbe7b7099	-0.24554671
193	0xbc99dcc6	-0.01878203
194	0xbea5e006	-0.3239748
195	0xbdbb8777	-0.09156697
196	0xbe807cd3	-0.25095233
197	0x3e6a4d60	0.22881079
198	0x3f396760	0.7242336
199	0x3f4ea3d7	0.8071875
200	0x3d8878e0	0.0666368
201	0x3d1fa868	0.038978964
202	0x3c806509	0.015673177
203	0xbd1bda4e	-0.03804999
204	0xbdd9e446	-0.10639243
205	0x3f44e6f9	0.76914936
206	0xbd1e6264	-0.03866805
207	0x3f47a03f	0.7797889
208	0x3ff58279	1.9180442
209	0x3fd3e463	1.6554073
210	0xbc02c0be	-0.007980524
211	0xbdda82e2	-0.10669495
212	0x3d819e6d	0.063290454
213	0x3b07a0b7	0.0020695159
214	0x3d002120	0.03128159
215	0x3e17dcc5	0.1483031
216	0x3e99f0e7	0.30066606
217	0xbd01d8a9	-0.031700764
218	0x3f632804	0.88732934
219	0x3d68d0fa	0.05683992
220	0xbde81c69	-0.11333544
221	0x3e823e72	0.25438267
222	0x3df905fa	0.12159343
223	0xbd0529fe	-0.03251075
224	0xbead2000	-0.33813477
225	0x3e8c07fa	0.27349836
226	0xbeb67f7c	-0.35644138
227	0x3dbde722	0.09272601
228	0x3f236227	0.63821644
229	0x3f12ef4a	0.57396376
230	0xbea6ed85	-0.32603088
231	0x3e32631c	0.1742062
232	0xbe7ab3e7	-0.2448269
233	0x3ec8b0ef	0.3919749
234	0xbd91e0c3	-0.07122948
235	0xbeede66d	-0.46464863
236	0xbd194ce1	-0.037426833
237	0xbf06c854	-0.52649426
238	0xbf02cda3	-0.51095027
239	0xbe2559c3	-0.16147523
240	0xbd5d6d7a	-0.054059483
241	0x3ed75a7b	0.4206122
242	0x3e84a075	0.2590367
243	0xbda67f63	-0.08129766
244	0xbdaec417	-0.08533495
245	0xbcb04255	-0.021516005
246	0xbe3718a2	-0.1788049
247	0x3e0c3048	0.13690293
248	0x3f439eb4	0.76414037
249	0x3f112953	0.5670368
250	0xbe810350	-0.2519784
251	0xbd8d4483	-0.06897833
252	0x3de89075	0.11355678
253	0xbf1a8191	-0.6035395
254	0xbcbee757	-0.02330367
255	0xbc30fd6c	-0.010802608

fc_l.0.bias f4 [128]
0	0x3f186ff2	0.59545815
1	0x3f1f0009	0.6210943
2	0x3e42cfde	0.19024608
3	0x3d8cf2ff	0.06882285
4	0x3d8b9a56	0.068165466
5	0xbe00ce57	-0.12578712
6	0xbdc331c3	-0.09530976
7	0x3dd59cef	0.10430323
8	0xbdf72e58	-0.12069386
9	0xbeed1700	-0.4630661
10	0x3f34341b	0.70392007
11	0x3e592b17	0.21207844
12	0xbe63c2af	-0.22242235
13	0x3f10fc75	0.5663522
14	0x3f1b6960	0.60707664
15	0xbe216b38	-0.15763557
16	0x3e89f831	0.26947168
17	0xbed8fe9f	-0.4238176
18	0x3e060734	0.13088685
19	0x3eb04f34	0.34435427
20	0x3f0a8e0f	0.54123014
21	0x3faf6500	1.3702698
22	0x3f4596e5	0.7718337
23	0x3e649598	0.2232269
24	0x3e44f6ef	0.19234823
25	0x3f073ea7	0.52829975
26	0x3caae93f	0.020863174
27	0xbe39cf48	-0.18145478
28	0xbe04f947	-0.12985717
29	0xbefcc49b	-0.49368748
30	0x3c8b377f	0.016994236
31	0xbe9be995	-0.30451646
32	0x3ea34496	0.31888264
33	0x3dd47827	0.1037448
34	0xbdd86096	-0.10565297
35	0x3fb9507e	1.4477689
36	0xbf82ddda	-1.0223954
37	0x3f0e508f	0.5559167
38	0x3cb67e0f	0.022276906
39	0x3ff3f5d4	1.9059396
40	0x3defdc25	0.11711911
41	0xbe871995	-0.26386705
42	0x3d5b2817	0.05350503
43	0xbe9dc522	-0.30814463
44	0xbed3d004	-0.4136964
45	0x3f7846bc	0.9698293
46	0x3f3171f8	0.6931453
47	0xbdf08cf6	-0.11745636
48	0xbe95b19b	-0.29237065
49	0xbd2e56d1	-0.042563263
50	0x3df58ccd	0.11989746
51	0x3f787b17	0.9706282
52	0x3e948ea4	0.29015076
53	0x3e747741	0.23873617
54	0x3d1bf68a	0.038076915
55	0x3d8bfdbd	0.06835506
56	0xbd2782c5	-0.040896196
57	0x3f0015c6	0.50033224
58	0x3e22fb85	0.1591626
59	0xbdab5633	-0.083660506
60	0xbecd4032	-0.4008804
61	0x3e522b86	0.20524415
62	0x3f3441a0	0.70412636
63	0x3e8e2161	0.2775984
64	0xbe3acece	-0.18242952
65	0xbdbdb1a8	-0.09262401
66	0x3ddfbf25	0.1092513
67	0xbe879c3f	-0.26486394
68	0xbe816b6c	-0.2527727
69	0xbdb5e24d	-0.08881054
70	0xbd0f6c22	-0.035015233
71	0x3fc1a60a	1.5128796
72	0x3f4005cb	0.7500884
73	0x3f48ee74	0.7848885
74	0x3f3fc4ed	0.7490986
75	0x3ea0add7	0.3138263
76	0xbd6f103a	-0.058365084
77	0x3cb06356	0.021531742
78	0x3eceb636	0.4037339
79	0x3f4d3b77	0.8016886
80	0x3e9f8df6	0.31162995
81	0x3e9ba854	0.30401862
82	0x3c8eb530	0.017420381
83	0x3ef53466	0.4789154
84	0x3e00bdc1	0.12572385
85	0x3e3c6144	0.18396479
86	0x3e219cf4	0.15782529
87	0x3f30f19c	0.69118667
88	0xbf198b43	-0.5997812
89	0x3f852fea	1.0405247
90	0xbe38a6f1	-0.18032433
91	0x3e532d25	0.2062269
92	0xbdf2e912	-0.11860861
93	0x3f39fe4f	0.7265367
94	0xbd9e970f	-0.07743656
95	0xbec08440	-0.376009
96	0x3e836e45	0.25670066
97	0x3f509ba5	0.81487495
98	0x3debdb34	0.11516419
99	0x3e28462f	0.16433023
100	0x3fd8055a	1.6876633
101	0x4006286e	2.0962176
102	0x3cd2d74d	0.025737429
103	0xbdfa1081	-0.12210179
104	0x3f0871db	0.5329873
105	0x3e1fab2c	0.1559264
106	0x3e98244b	0.2971519
107	0x3fe251fc	1.768127
108	0x3eb9c4ba	0.36282903
109	0x3ebfa0bb	0.37427315
110	0xbe6e15d3	-0.23250513
111	0x3ec62a0e	0.3870396
112	0xbdd4960c	-0.10380182
113	0x3f3eebf6	0.745788
114	0x3e86412f	0.26221606
115	0x3f6857d2	0.90759003
116	0x3d821288	0.06351191
117	0x3eca47ea	0.3950799
118	0xbd40228b	-0.046907943
119	0x3f3bf966	0.73427427
120	0x3f13c2c6	0.57719076
121	0xbe5bf1df	-0.21478985
122	0x3e644868	0.22293246
123	0x3df3e229	0.11908371
124	0x3dab6ffc	0.08370969
125	0x3ce55664	0.027995296
126	0x3f517ee2	0.8183423
127	0xbd19bbb9	-0.037532542

fc_l.2.weight f4 [128]
0	0x3f71ea79	0.944984
1	0x3faebecc	1.3651977
2	0x3f521789	0.8206716
3	0x3f499382	0.78740704
4	0x3f7ff754	0.9998677
5	0x3f5f640d	0.8726204
6	0x3f5c65fa	0.86093104
7	0x3f917a13	1.1365379
8	0x3f604eb6	0.87620103
9	0x3f6784dd	0.9043711
10	0x3f5db20e	0.86599815
11	0x3f5efd1b	0.8710496
12	0x3f54d1fc	0.8313291
13	0x3f5e0250	0.8672228
14	0x3f8be917	1.0930508
15	0x3f59402a	0.8486353
16	0x3f8bf53e	1.0934217
17	0x3f814598	1.0099363
18	0x3f6a9e11	0.9164744
19	0x3f609447	0.87726253
20	0x3f86104f	1.0473727
21	0x3fa0e93e	1.257118
22	0x3f5f5a5e	0.87247264
23	0x3f47afe6	0.78002775
24	0x3f5ebe92	0.8700954
25	0x3fa30569	1.2736026
26	0x3fa112d6	1.2583873
27	0x3f74cd44	0.9562571
28	0x3f3ed1b4	0.7453873
29	0x3f7597e0	0.9593487
30	0x3f61c03b	0.88183945
31	0x3f6a21a0	0.9145756
32	0x3f5c2900	0.8600006
33	0x3f9e2e7a	1.2357934
34	0x3f6365b5	0.8882707
35	0x3f84860e	1.035341
36	0x3fb50123	1.4140972
37	0x3f6b33f8	0.91876173
38	0x3f7fb28f	0.99881834
39	0x3f86a85f	1.0520133
40	0x3f4c9ec3	0.7992975
41	0x3f450386	0.769585
42	0x3f78b983	0.9715807
43	0x3f649870	0.892951
44	0x3ee5e832	0.44903713
45	0x3f90141f	1.125614
46	0x3fc0c02a	1.5058644
47	0x3f6e40e3	0.9306776
48	0x3f741d6e	0.95357406
49	0x3f784792	0.9698421
50	0x3f59d13f	0.8508491
51	0x3f74ea83	0.95670336
52	0x3f7fd333	0.9993164
53	0x3f52460c	0.82138133
54	0x3f6d1603	0.9261171
55	0x3f9b6c44	1.2142415
56	0x3f50e14a	0.81593764
57	0x3f864185	1.0488745
58	0x3f8608f3	1.0471481
59	0x3fb63a56	1.4236553
60	0x3f800b2a	1.0003407
61	0x3f9cb8ba	1.2243874
62	0x3f6484c7	0.892651
63	0x3f633d7f	0.8876571
64	0x3f486eb0	0.78293896
65	0x3f87e8e1	1.0617944
66	0x3f50b795	0.81530124
67	0x3f7b4ff3	0.9816887
68	0x3f735f7a	0.9506756
69	0x3f6aae0f	0.9167184
70	0x3f47df61	0.78075224
71	0x3f87c4b7	1.0606908
72	0x3f5c9da5	0.86178046
73	0x3f84ae0f	1.0365618
74	0x3f94397a	1.158004
75	0x3f73c037	0.9521517
76	0x3f4f4eea	0.8097979
77	0x3f797a28	0.9745202
78	0x3f6ecf6c	0.9328525
79	0x3f7a5999	0.97792965
80	0x3f74630d	0.9546364
81	0x3f834698	1.0255919
82	0x3f5a8c39	0.8537021
83	0x3f925199	1.1431152
84	0x3f29db8c	0.66350627
85	0x3f47c003	0.7802736
86	0x3f1f9405	0.62335235
87	0x3fa15d22	1.2606547
88	0x3f71db4d	0.9447525
89	0x3f6c9df4	0.9242852
90	0x3f68b678	0.90903425
91	0x3f4dd7c4	0.8040736
92	0x3f7ce9f1	0.98794466
93	0x3f6027f4	0.87560964
94	0x3f6d53df	0.927061
95	0x3f70e31f	0.9409656
96	0x3f7beac8	0.9840512
97	0x3f8ff257	1.1245831
98	0x3f8336ad	1.0251061
99	0x3f3bf6d5	0.7342351
100	0x3f8ea683	1.1144565
101	0x3fa19949	1.2624904
102	0x3f70950f	0.93977445
103	0x3f570b9d	0.84002095
104	0x3f4fa562	0.8111173
105	0x3f111dc8	0.5668607
106	0x3f5ba8fc	0.85804725
107	0x3f8fe319	1.124118
108	0x3f72b12c	0.9480159
109	0x3f71c180	0.9443588
110	0x3f25c466	0.64752805
111	0x3f8c7f4e	1.097635
112	0x3f8602f4	1.0469651
113	0x3f701391	0.93779856
114	0x3f60a3ba	0.87749827
115	0x3f79c07c	0.9755933
116	0x3f73f9c0	0.95302963
117	0x3f60aa7e	0.8776015
118	0x3f38110d	0.7190102
119	0x3f869f75	1.0517412
120	0x3f5d1bf3	0.8637077
121	0x3f7c0141	0.98439413
122	0x3f6f91ee	0.93582046
123	0x3f65f344	0.8982432
124	0x3f61b87e	0.8817214
125	0x3f5f83f8	0.87310743
126	0x3f9d1383	1.227158
127	0x3f558a56	0.8341421

fc_l.2.bias f4 [128]
0	0x3d12c7b8	0.035834998
1	0x3da13e78	0.07873243
2	0x3d38253e	0.044957392
3	0x3d3bafd7	0.04582199
4	0xbd87c0b5	-0.06628553
5	0x3e04c795	0.1296676
6	0x3dd1fc36	0.102531835
7	0x3d3c6362	0.045993216
8	0xbccd0ec0	-0.025031447
9	0xbcc774c9	-0.02434768
10	0xbd09b832	-0.033622928
11	0xbc54d6a2	-0.012990626
12	0xbc8229dc	-0.0158891
13	0x3e1063b4	0.14100534
14	0x3df14a72	0.117817774
15	0xbdb199a3	-0.08671882
16	0x3cf32e1d	0.029685074
17	0x3d993187	0.0748015
18	0x3da744a6	0.081673905
19	0xbcae2bb3	-0.021261072
20	0x3d8ddd9c	0.06927034
21	0xbdc47a0f	-0.09593593
22	0x3c16139b	0.009159948
23	0x3d83cdb8	0.06435722
24	0x3e1ee2a1	0.1551614
25	0xbdbe8c9b	-0.09304162
26	0xbd92d599	-0.07169647
27	0x3d43fed8	0.04785046
28	0xbdad9037	-0.084747724
29	0xbc9372cc	-0.017999075
30	0xbc1a74a7	-0.009427226
31	0x3a2ae5b1	0.0006519212
32	0x3c62902e	0.01382832
33	0xbdfb6251	-0.12274612
34	0xbc0d6579	-0.00863015
35	0x3dbcea3f	0.092243664
36	0x3d35c017	0.044372644
37	0x3dbe44ad	0.092904426
38	0x3dad571c	0.084638804
39	0xbd9e11f6	-0.077182695
40	0xbc7a6443	-0.015282693
41	0xbd9b9050	-0.07595885
42	0xbddbaf66	-0.10726814
43	0x3d71b622	0.059011586
44	0xbe03b060	-0.1286025
45	0x3dbaf012	0.09127821
46	0x3da7eea1	0.08199812
47	0x3dd396bd	0.103314854
48	0xbde90010	-0.11376965
49	0x3bb9d942	0.005671651
50	0x3ded6302	0.1159115
51	0x3d4fe21d	0.050752748
52	0x3d2e16f9	0.042502377
53	0xbc45f505	-0.012082343
54	0x3c4687fd	0.012117383
55	0x3dd5152a	0.10404427
56	0xbe02e45b	-0.12782423
57	0x3de9ae80	0.11410236
58	0xbdce4cef	-0.10073268
59	0x3b2e33ef	0.0026581248
60	0xbdd47976	-0.10374729
61	0xbcb1bc8b	-0.02169635
62	0x3d26fc60	0.040768027
63	0x3e0ba4ea	0.13637128
64	0xbd0b80c3	-0.034058344
65	0x3ddbfd37	0.10741656
66	0xbbff5e61	-0.0077932333
67	0x3cb254cc	0.02176895
68	0x3dcc5ac9	0.099782534
69	0x3b8caec8	0.0042932965
70	0x3b63eb3e	0.0034777666
71	0xbdd9aec4	-0.10629037
72	0xbceca434	-0.028886892
73	0x3dfc5467	0.12320786
74	0x3d91de56	0.07122485
75	0x3cad75db	0.021174362
76	0x3d363c0d	0.044490863
77	0xbda48fee	-0.08035265
78	0xbd37b55c	-0.044850692
79	0xbc3b77df	-0.011442154
80	0xbd2b9255	-0.0418876
81	0xbdbfc31b	-0.09363385
82	0x3d2e0aa6	0.042490624
83	0xbd810fe6	-0.063018605
84	0x3d8ad242	0.06778385
85	0x3d981751	0.07426322
86	0x3dde6947	0.10859924
87	0x3da968de	0.08271955
88	0xbdb6dbf5	-0.08928672
89	0x3c43ae4a	0.011943409
90	0x3e24b5a9	0.16084923
91	0x3d9226e8	0.07136327
92	0x3d119ff9	0.035552952
93	0xba29210d	-0.00064517633
94	0xbba265af	-0.0049559693
95	0xbd601844	-0.05471064
96	0x3c40f3de	0.0117768925
97	0x3d8352b5	0.064122595
98	0x3cf19535	0.029490093
99	0x3cf91eac	0.030410133
100	0xbdbd51ca	-0.09244116
101	0x3e080ea0	0.13286829
102	0x3d930ecd	0.071805574
103	0xbbe46947	-0.006970558
104	0x3d7bef3a	0.06150744
105	0xbc2f21b5	-0.010689189
106	0x3c52ee2d	0.012874168
107	0x3d3d62c8	0.046236783
108	0xbc9e3e2c	-0.019316755
109	0xbcd2fde0	-0.025755823
110	0xbdb73268	-0.08945161
111	0xbe06f46b	-0.13179176
112	0xbdc948c9	-0.09828336
113	0x3d03c254	0.032167748
114	0x3dfe25a0	0.1240952
115	0xbc8c10a7	-0.017097784
116	0xbca39344	-0.019967683
117	0x3c16c20c	0.009201538
118	0xbdcd4095	-0.10022084
119	0x3dc6162f	0.096722
120	0xbcdbc816	-0.026828807
121	0x3cdf045c	0.027223758
122	0xbc21420f	-0.00984241
123	0x3e18d4d7	0.14924942
124	0xba03fbf0	-0.0005034795
125	0x3dc9c91b	0.09852811
126	0xbd5980e1	-0.053101424
127	0xbcec44da	-0.028841425

fc_l.2.running_mean f4 [128]
0	0x4350a424	208.64117
1	0x40fe0baa	7.938924
2	0x43a55428	330.65747
3	0x42b79cac	91.806
4	0xbe9b2604	-0.3030244
5	0x451c49e7	2500.619
6	0x44bbe715	1503.2213
7	0xbd433f4c	-0.047667786
8	0xbf7ffff2	-0.99999917
9	0x4106aa59	8.416589
10	0x436c0dcd	236.05391
11	0xbf7fa5d1	-0.9986239
12	0x41cafdeb	25.373983
13	0x4388d89d	273.6923
14	0x438ce399	281.7781
15	0xbf73aafe	-0.9518279
16	0x3ff5b2d9	1.9195205
17	0x40d6f21f	6.717056
18	0x43c30f9f	390.12204
19	0x43981aa0	304.208
20	0x43a76cb0	334.84912
21	0xbf614013	-0.87988394
22	0x440e47c9	569.12164
23	0x43bc27f4	376.31213
24	0x44cdd43f	1646.6327
25	0xbf7ffd07	-0.99995464
26	0xbf1fd542	-0.6243478
27	0xbf7fe728	-0.9996209
28	0xbf7bcf1f	-0.98362917
29	0xbf7fffe8	-0.99999857
30	0xbf7fffde	-0.999998
31	0xbf7fffd7	-0.99999756
32	0x425aa307	54.659206
33	0xbf7ffb94	-0.9999325
34	0xbf7fffb6	-0.9999956
35	0x43af6c8e	350.84808
36	0xbf787204	-0.97048974
37	0x44039aae	526.4169
38	0x433a5c73	186.36113
39	0xbed969f0	-0.42463636
40	0x43e2080f	452.06296
41	0xbf79b325	-0.9753898
42	0xbf7e9637	-0.9944796
43	0xbf7fffe8	-0.99999857
44	0xbf7f8fc2	-0.9982873
45	0x437ff4e6	255.95663
46	0xbf7fff51	-0.99998957
47	0x44b2ce43	1430.4457
48	0xbf7ffff2	-0.99999917
49	0xbf7fffde	-0.999998
50	0x4498f2ea	1223.5911
51	0x43a1ac1d	323.34464
52	0xbf76fc2f	-0.9647855
53	0x4426a464	666.5686
54	0x404b3814	3.1752977
55	0xbf754669	-0.9581056
56	0x39d673ed	0.00040903632
57	0x436fe1e4	239.88239
58	0xbf7d6761	-0.9898587
59	0x3d563f3c	0.0523064
60	0xbf7ffff2	-0.99999917
61	0xbf7216d0	-0.9456606
62	0x43bc7a25	376.95425
63	0x446cbfc8	946.9966
64	0x3ed70567	0.4199631
65	0x4289e55f	68.94799
66	0xbf7fffd4	-0.9999974
67	0x3fdf2935	1.743445
68	0x428b51e2	69.65993
69	0xbf71726c	-0.9431522
70	0xbe3ea6b0	-0.18618274
71	0x426ba454	58.910477
72	0x3f03ef42	0.51536953
73	0x43f7cfcf	495.6235
74	0x4228132a	42.018715
75	0x3f63f6e1	0.8904858
76	0x42693d58	58.309906
77	0xbf7ea732	-0.9947387
78	0x41b7cbb7	22.97447
79	0x3f864952	1.0491126
80	0xbf6c6d90	-0.9235468
81	0xbf58049a	-0.8438202
82	0x423728de	45.78991
83	0xbe8980ca	-0.2685607
84	0x44042a8f	528.665
85	0x430fa3df	143.64012
86	0x44b2b838	1429.7568
87	0x3ee8c035	0.45459142
88	0xbf7ffff2	-0.99999917
89	0x43d29da7	421.23166
90	0x4502e6ff	2094.4373
91	0x445c583d	881.3787
92	0x41dd0e14	27.631874
93	0x41b78180	22.938232
94	0xbf7db667	-0.9910645
95	0xbf7ffff2	-0.99999917
96	0xbea9a7cd	-0.33135834
97	0x42b57cbe	90.74364
98	0xbf7fedc9	-0.99972206
99	0x44001ba5	512.43195
100	0xbf2fd5c0	-0.6868553
101	0x410e8083	8.906375
102	0xbf34fa0c	-0.7069404
103	0x44398c3c	742.19116
104	0x4291f6f4	72.98233
105	0xbf7f836f	-0.99809927
106	0x43788c6d	248.54854
107	0x41eb13b2	29.384617
108	0xbe994960	-0.29938793
109	0x41d05eec	26.046349
110	0xbf7f7b06	-0.99797094
111	0xbf7fffa1	-0.99999434
112	0xbf4513b7	-0.7698321
113	0x409f2ec0	4.974457
114	0x443939c8	740.90283
115	0x4056af9e	3.3544688
116	0xbf7fb885	-0.9989093
117	0x4382ae0d	261.35977
118	0xbf73bbdb	-0.9520852
119	0x42f43522	122.103775
120	0x43e309bf	454.07614
121	0xbf7ffa7a	-0.9999157
122	0x43481fa3	200.12358
123	0x45069a2f	2153.6365
124	0xbf7fffe7	-0.9999985
125	0x44ef3faa	1913.9895
126	0x413c61b9	11.773858
127	0x4336a0c8	182.62805

fc_l.2.running_var f4 [128]
0	0x499a6fa6	1.2651408e+06
1	0x46b48844	23108.133
2	0x4a5188de	3.4330155e+06
3	0x49190162	626710.1
4	0x41df5164	27.914742
5	0x4c7346a4	6.377333e+07
6	0x4babc4de	2.2514108e+07
7	0x4201cc18	32.44931
8	0x32f6d1f5	2.8733647e-08
9	0x462f6904	11226.254
10	0x49a18792	1.3232502e+06
11	0x3db7f1e0	0.08981681
12	0x4780c3cc	65927.59
13	0x49968b61	1.2332601e+06
14	0x48906080	295684.0
15	0x4122f248	10.184151
16	0x462cb929	11054.29
17	0x449be1d7	1247.0575
18	0x49c3fff3	1.6056304e+06
19	0x49e80a5b	1.9008754e+06
20	0x49e2fab4	1.8594145e+06
21	0x4083192f	4.096824
22	0x4ae74c6f	7.5791915e+06
23	0x4a4a38ba	3.3131985e+06
24	0x4becf29a	3.1057204e+07
25	0x3672c1b3	3.6173558e-06
26	0x435a4e07	218.3048
27	0x3886ed94	6.43387e-05
28	0x402dd25b	2.715964
29	0x315a8ffd	3.1805023e-09
30	0x31dd6f43	6.4445955e-09
31	0x3765c75e	1.3695882e-05
32	0x4793a858	75600.69
33	0x37294579	1.008936e-05
34	0x33291496	3.93671e-08
35	0x4a38fbac	3.030763e+06
36	0x3fd05498	1.6275816
37	0x4abfa4ac	6.279766e+06
38	0x487c1df8	258167.88
39	0x4217bd72	37.935005
40	0x4a11e3b5	2.3902532e+06
41	0x4005acf4	2.0886812
42	0x3f0819a4	0.53164124
43	0x31de4a50	6.4694987e-09
44	0x3deb397c	0.11485574
45	0x48d84d0c	442984.38
46	0x360de83e	2.114582e-06
47	0x4b9cd755	2.0557482e+07
48	0x2ee13091	1.02404425e-10
49	0x31f1ad71	7.033741e-09
50	0x4b8a076b	1.8091734e+07
51	0x4a11ac64	2.386713e+06
52	0x40a8688d	5.2627625
53	0x4ae8844f	7.6191115e+06
54	0x4685e40f	17138.03
55	0x40ff2bd1	7.9740987
56	0x4525dd59	2653.8342
57	0x48bd6f80	387964.0
58	0x3e1e3a66	0.15451965
59	0x43cdb04a	411.37726
60	0x2e905767	6.5638876e-11
61	0x413d3efb	11.827876
62	0x4a745c75	4.0036132e+06
63	0x4b12d0ea	9.621738e+06
64	0x458ec087	4568.066
65	0x4789a2ed	70469.85
66	0x32739475	1.4178217e-08
67	0x4641cbab	12402.917
68	0x4667816f	14816.358
69	0x409cac53	4.8960357
70	0x44d320b0	1689.0215
71	0x4790c673	74124.9
72	0x429f91ff	79.78515
73	0x4a825aa9	4.2714445e+06
74	0x47b33d36	91770.42
75	0x45b92c55	5925.5415
76	0x48714381	247054.02
77	0x3efce3d5	0.49392572
78	0x479bedde	79835.734
79	0x44b743eb	1466.1224
80	0x419a2cab	19.27181
81	0x43572287	215.13487
82	0x461d0c56	10051.084
83	0x4191abef	18.208952
84	0x4a7a2b7a	4.0987825e+06
85	0x49696cae	956106.9
86	0x4bbd1eaf	2.4788318e+07
87	0x43a8ce80	337.61328
88	0x2ff284e7	4.4113976e-10
89	0x4a85a503	4.3792655e+06
90	0x4c1cf8aa	4.1149096e+07
91	0x4afaf3da	8.223213e+06
92	0x459d2f21	5029.891
93	0x455b1066	3505.025
94	0x3f8f95f0	1.1217632
95	0x2e89c65e	6.265276e-11
96	0x44935d54	1178.9165
97	0x474b00df	51968.87
98	0x3808ff9e	3.266299e-05
99	0x4a85c4dc	4.383342e+06
100	0x3fe8b08d	1.8178879
101	0x44b255da	1426.6829
102	0x40d0d39a	6.5258303
103	0x4a85dd57	4.3864755e+06
104	0x48fafad9	514006.78
105	0x3e0db558	0.13838708
106	0x4a138e88	2.41757e+06
107	0x4557717d	3447.093
108	0x41bc64ac	23.549156
109	0x47a9ad46	86874.55
110	0x3debe329	0.11517937
111	0x33c1947b	9.014271e-08
112	0x40470548	3.1096973
113	0x46149cd6	9511.209
114	0x4afbdffc	8.253438e+06
115	0x43a674d4	332.91272
116	0x3d415a38	0.04720518
117	0x4a0721ec	2.214011e+06
118	0x4103307e	8.199339
119	0x4787440f	69256.12
120	0x4a965f14	4.92737e+06
121	0x37448adb	1.171484e-05
122	0x4950ed6f	855766.94
123	0x4c286402	4.41426e+07
124	0x318d349e	4.109622e-09
125	0x4c17ae49	3.9762212e+07
126	0x462b04c8	10945.195
127	0x499a5490	1.264274e+06

fc_l.3.weight f4 [64, 128]
0	0x3e2c6c96	0.16838297
1	0x3eea0438	0.45706344
2	0xba01d607	-0.0004952852
3	0xbd97e21e	-0.07416175
4	0xbd1a0fbb	-0.037612658
5	0x3dce1944	0.10063413
6	0x3da68157	0.08130138
7	0xbe2c9ae1	-0.16855957
8	0x3cb510e7	0.022102786
9	0xbe412ca9	-0.18864693
10	0xbd70fe4d	-0.05883627
11	0xbd51ab57	-0.051188793
12	0xbcc615fa	-0.024180401
13	0xbc918c84	-0.017767198
14	0x3e6ec3cf	0.23316883
15	0xbe62aa07	-0.22135173
16	0x3df957cc	0.12174949
17	0xbdbf1591	-0.09330285
18	0x3d5f4ddf	0.054517623
19	0x3d154b5b	0.036448818
20	0x3e35df3b	0.17760937
21	0x3e050de5	0.12993582
22	0xbcaf7655	-0.02141873
23	0xbd5fb197	-0.054612722
24	0x3dcaf290	0.099095464
25	0xbe922f16	-0.2855155
26	0xbe4c6bb1	-0.19962956
27	0xbcef907f	-0.029243706
28	0x3c9958f0	0.018719167
29	0xbe023694	-0.12716132
30	0xbdded6b9	-0.10880799
31	0x3d947eb8	0.07250732
32	0xbe16a6e6	-0.14712104
33	0xbe591b02	-0.21201709
34	0xbdd3b2ce	-0.10336839
35	0x3e42c7d0	0.19021535
36	0x3e02d112	0.12775066
37	0x3e1c02f0	0.15235496
38	0x3e1cfb12	0.1533015
39	0xbbfa1336	-0.0076316847
40	0xbdb58d66	-0.0886486
41	0xbe827295	-0.25478044
42	0x3d687a76	0.056757413
43	0x3dd7779b	0.1052086
44	0xbdbc11e2	-0.091830984
45	0x3e8d5c31	0.276094
46	0x3e90a0a9	0.28247574
47	0xbd22de2b	-0.039762657
48	0xbe5d07ab	-0.21584956
49	0xbcd462ac	-0.025925957
50	0x3c97156a	0.018442828
51	0x3e0d2816	0.13784823
52	0x3d8a432f	0.067510955
53	0xbbb24f2b	-0.0054415665
54	0xbd1f19bc	-0.0388429
55	0x3e35428e	0.1770117
56	0xbe43736d	-0.19087
57	0x3e065c89	0.13121237
58	0x3d96491a	0.07338162
59	0x3d4cfde6	0.050046824
60	0xbcc06e6f	-0.023490159
61	0xbd9fa6b4	-0.07795468
62	0x3d551343	0.052020323
63	0x3d80b6db	0.06284877
64	0xbd0b05bc	-0.033941016
65	0x3e5e632c	0.21717519
66	0xbdf41715	-0.11918465
67	0xbdbeb121	-0.093111284
68	0x3d5064e3	0.050877463
69	0x3db445d8	0.08802384
70	0xbb0331d5	-0.0020018716
71	0xbe9d6297	-0.3073928
72	0x3d2101dd	0.039308418
73	0x3e86cd52	0.26328522
74	0x3e28bcad	0.16478224
75	0xbe0333f8	-0.12812793
76	0x3d20d2d8	0.039263576
77	0x3de4c5c2	0.11170532
78	0xbd09ce6a	-0.033644117
79	0xbddb71a2	-0.10715033
80	0x3dd63e42	0.104610935
81	0xbe408cd6	-0.18803725
82	0x3e41e4af	0.18934892
83	0xbe55d5ab	-0.20882289
84	0x3c1a3feb	0.009414653
85	0xbdf86c41	-0.12130023
86	0xbdb48716	-0.08814828
87	0x3f57846f	0.8418645
88	0xbc6676f0	-0.014066443
89	0xbcda9ffa	-0.02668761
90	0x3e197440	0.14985752
91	0xbc2256d6	-0.009908399
92	0x3e59f82f	0.21286081
93	0xbd096e5d	-0.033552516
94	0x3d9fb91f	0.07798981
95	0xbddc365f	-0.10752558
96	0xbdbf1a73	-0.09331217
97	0x3e69e4f9	0.22841252
98	0x3e8052dd	0.2506322
99	0xbaf5e4dd	-0.0018760223
100	0xbd86b1f7	-0.06576913
101	0x3f2f3512	0.68440354
102	0x3dbb7c92	0.09154619
103	0xbd45c9d3	-0.048288178
104	0xbd90bd73	-0.070673846
105	0xbe030505	-0.12794884
106	0xbd562e65	-0.05229034
107	0xbea75e02	-0.3268891
108	0x3db10e6f	0.08645331
109	0xbd7fbcad	-0.062435795
110	0xbdfeb8ec	-0.12437615
111	0xbe8ff96d	-0.28119984
112	0xbcb98eaf	-0.022651045
113	0x3cf81d68	0.03028746
114	0xb925bb3a	-0.00015805374
115	0x3dd5ff32	0.10449065
116	0x3bc573ee	0.006025783
117	0x3da9f54d	0.082987405
118	0xbe825017	-0.2545173
119	0x3e59fcad	0.21287794
120	0x3c1e6dd8	0.0096697435
121	0x3e160d2f	0.14653467
122	0x3e1d166e	0.15340587
123	0x3cf499ba	0.029858459
124	0x3d21a5f1	0.039464895
125	0x3c1a2826	0.009408986
126	0x3dd68408	0.10474402
127	0xbdceb22a	-0.10092576
128	0xbdacac40	-0.084312916
129	0x3d65ba8c	0.056086108
130	0x3d5ecda2	0.054395325
131	0x3c0f06d2	0.008729653
132	0x3db57309	0.08859832
133	0xbd408a87	-0.04700711
134	0x3d293d7b	0.041318398
135	0xbe3b7332	-0.18305662
136	0xbae972ba	-0.001781068
137	0x3d000796	0.031257235
138	0xbd2dad36	-0.042401515
139	0xbd0f8e1c	-0.035047635
140	0xbd4f3b6f	-0.05059379
141	0x3db3b38d	0.08774481
142	0xbe22cee7	-0.1589924
143	0x3dc4d385	0.09610657
144	0x3e053fbd	0.13012595
145	0x3e0709c9	0.13187326
146	0x3ca09c53	0.019605791
147	0xbc110ce9	-0.008853176
148	0xbe1fa560	-0.1559043
149	0xbd3ba418	-0.04581079
150	0xbdedaaae	-0.1160482
151	0xbd466ebe	-0.048445456
152	0x3d358856	0.044319473
153	0x3e3d1c8c	0.18467921
154	0x3cbcafd4	0.02303306
155	0xbd61cae7	-0.055125143
156	0x3df19fd4	0.11798063
157	0xbd61e4dd	-0.0551499
158	0xbcd5ffde	-0.026122984
159	0xbdaf9ee2	-0.08575226
160	0xbc6adba9	-0.014334598
161	0x3e13c03f	0.14428805
162	0xbce3a483	-0.027788406
163	0xbdbbb2d7	-0.0916497
164	0xbdcbbeef	-0.09948527
165	0xbd9a9531	-0.07547987
166	0xbde51d23	-0.11187198
167	0xbde18465	-0.110115804
168	0x3d3958ee	0.045250826
169	0xbcc27ade	-0.023740228
170	0x3d9999bd	0.075000264
171	0xbcbeef8c	-0.023307584
172	0x3d61ff03	0.05517484
173	0xbe1d8ccc	-0.15385741
174	0xbe2b9bd3	-0.16758661
175	0x3d2d86d1	0.0423649
176	0x3dbdff3d	0.092771985
177	0x3cb2b182	0.021813158
178	0xbd6695ce	-0.05629521
179	0x3d2c91b5	0.042131145
180	0xbc0e8b58	-0.008700214
181	0xbd1c18e3	-0.03810967
182	0x3d28595b	0.04110084
183	0xbd2423c8	-0.040073186
184	0x3cd997d9	0.026561664
185	0xbdae470c	-0.08509645
186	0x3e29f7ff	0.16598509
187	0xbe6ff697	-0.2343391
188	0x3ba27d35	0.0049587735
189	0xbd321135	-0.04347344
190	0x3cc4e530	0.024035066
191	0xbb9ade18	-0.0047261827
192	0xbd759f6b	-0.059966486
193	0x3d6af9df	0.057367202
194	0x3d802a36	0.06258051
195	0xbd461241	-0.048357252
196	0xbd446306	-0.047946
197	0xbbd6970a	-0.006548767
198	0xbc4e8dd1	-0.012607054
199	0x3cbe6c3c	0.02324497
200	0xbd0e9d4b	-0.034817975
201	0xbd24b7cf	-0.040214356
202	0xbdd5b706	-0.104352996
203	0xbd55d1f4	-0.05220218
204	0xbc24a685	-0.010049467
205	0x3d9eefa9	0.07760555
206	0xbcc7c62b	-0.024386486
207	0xbcb63c55	-0.022245565
208	0xbc53b1e9	-0.012920835
209	0x3d92c338	0.07166141
210	0xbde00f74	-0.109404474
211	0xbe021aaa	-0.12705484
212	0x3bf853e0	0.007578358
213	0xbd5ebab7	-0.054377284
214	0xbd59c312	-0.05316455
215	0x3e8324ee	0.25614113
216	0x3e13da24	0.14438683
217	0x3cd16cfe	0.025564667
218	0x3d8a78a5	0.06761292
219	0x3d43b3fc	0.04777907
220	0x3db2f3cb	0.08737906
221	0x3dd4f0fd	0.10397527
222	0xbd89bdc5	-0.06725649
223	0x3c9b3cd6	0.018949907
224	0x3c9d3e1e	0.019194659
225	0xbded4884	-0.11586097
226	0x3bb14b33	0.005410576
227	0xbd6a0823	-0.057136666
228	0x3e460b33	0.1934021
229	0xbd83f152	-0.064425126
230	0xbdf01e53	-0.11724534
231	0x3bd388d9	0.0064555225
232	0x3db08556	0.08619182
233	0xbcb8bcdc	-0.022550993
234	0xbd88d58d	-0.066813566
235	0x3dda8619	0.10670108
236	0x3cf11fd7	0.029434128
237	0x3d393e63	0.045225512
238	0x3acdd3e2	0.0015703405
239	0x3de27547	0.11057525
240	0x3d949964	0.072558194
241	0xbc9458ce	-0.018108752
242	0x3d85a4f7	0.06525605
243	0xbdaa04d8	-0.08301705
244	0xbd58738c	-0.05284457
245	0xbd80b563	-0.06284597
246	0x3da5cd71	0.080958255
247	0x3d11cd84	0.035596386
248	0xbce5019b	-0.027954867
249	0xbe5d16bc	-0.21590704
250	0x3d04c160	0.03241098
251	0x3ccc22c6	0.024918925
252	0xbd990775	-0.074721254
253	0xbd4fd175	-0.050736863
254	0xbdec4b4d	-0.115378
255	0x3d745731	0.059653465

fc_l.3.bias f4 [64]
0	0x3e6da706	0.23208246
1	0xbd8f5810	-0.069992185
2	0x3a9818fb	0.0011604124
3	0x3c1f7f9a	0.009735012
4	0xbd9580eb	-0.0729998
5	0xbd239478	-0.039936513
6	0xbd0b0dc5	-0.03394868
7	0xbde97d52	-0.11400856
8	0xbdb1a87d	-0.08674715
9	0xbe2884ee	-0.16456959
10	0xbdfe2dc0	-0.1241107
11	0xbe086819	-0.1332096
12	0x3c8d55c4	0.01725281
13	0xbde58b5b	-0.112082206
14	0xbd026241	-0.031831983
15	0xbe009c2b	-0.12559573
16	0xbce4fe02	-0.027953152
17	0xbda593f9	-0.08084864
18	0xbdf97126	-0.121797845
19	0x3e0635fa	0.13106528
20	0xbe19b36f	-0.15009855
21	0x3df1790e	0.117906675
22	0xbd2ff63d	-0.04295944
23	0xbde8e40c	-0.113716215
24	0xbd1d7d7a	-0.038449742
25	0xbe111edf	-0.14171933
26	0xbd5211e3	-0.05128659
27	0x3b54d049	0.003247278
28	0x3d93d92c	0.072191566
29	0xbdddd2c7	-0.10831218
30	0x3ddc0a34	0.107441336
31	0x3e058fb4	0.130431
32	0xbd793c0f	-0.060848292
33	0x3e2c7804	0.16842657
34	0x3c89c6fd	0.016818518
35	0x3dae7a4e	0.085194215
36	0xbd1df06a	-0.038559355
37	0x3d9b6bb1	0.075889
38	0xbda5c414	-0.080940396
39	0xbdb642c4	-0.08899453
40	0xbd9e1a1a	-0.07719822
41	0xbe0d4feb	-0.13800018
42	0x3e02f5e3	0.12789111
43	0xbdf04d1f	-0.1173346
44	0xbccede6a	-0.02525254
45	0x3e1c7b52	0.15281418
46	0x3cc88870	0.024479121
47	0x3d7d7dea	0.06188766
48	0x3e205d92	0.15660694
49	0xbe2ab844	-0.16671854
50	0x3d70cb42	0.05878759
51	0xbe1382a2	-0.14405301
52	0x3dbb78c6	0.09153895
53	0x3d7aa30d	0.061190654
54	0xbce72083	-0.028213745
55	0xbd1c5af2	-0.03817267
56	0xbe4b1d7f	-0.1983547
57	0x3e044c54	0.12919742
58	0x3e184932	0.14871672
59	0x3e14953a	0.1451005
60	0x3e0851dc	0.13312477
61	0x3e367be5	0.178207
62	0xbe51b381	-0.20478632
63	0xbbb936cd	-0.0056522847

fc_h.0.weight f4 [128, 10]
0	0x3f1d1092	0.6135341
1	0x3e792606	0.24330911
2	0x3f0b6823	0.54455775
3	0x3e0f8a06	0.14017496
4	0xbdb12a0c	-0.08650598
5	0x3dc734fb	0.09726902
6	0x3e7caf9d	0.24676366
7	0xbcb06632	-0.021533106
8	0x3e979d79	0.2961233
9	0x3d54aec9	0.0519245
10	0x3ee1e064	0.4411651
11	0x3e8d0620	0.27543736
12	0x3ecc3691	0.3988538
13	0x3d3b2365	0.04568805
14	0xbd4a0b18	-0.049326986
15	0x3eaf6c78	0.34262443
16	0x3f3b31a9	0.7312265
17	0x3db614b3	0.08890667
18	0xbe132188	-0.1436826
19	0xbe701f27	-0.23449384
20	0x3eaca77e	0.33721536
21	0xbd27ccde	-0.04096686
22	0x3e88bf78	0.2670858
23	0xbd81d3b0	-0.06339204
24	0x3dad45de	0.08460592
25	0x3de32390	0.110907674
26	0x3f4eeae7	0.8082718
27	0x3bfe9c8c	0.0077701267
28	0x3ff050a4	1.877461
29	0x3fcf8c15	1.6214625
30	0x3dfd17a5	0.123580255
31	0x3e0cbaaa	0.13743082
32	0x3cafc226	0.021454882
33	0x3e601a9d	0.21885152
34	0xbcbb63a9	-0.02287467
35	0x3e8093cb	0.25112757
36	0x3f1e7578	0.61897993
37	0xbcf9dde8	-0.030501321
38	0x3d2ab8c2	0.041680105
39	0x3d5f8396	0.05456885
40	0x3edb3c6e	0.42819542
41	0xbce831fd	-0.028344149
42	0x3e19fa3e	0.15036866
43	0xbde205a4	-0.11036232
44	0xbd01d73b	-0.0316994
45	0x3e26a996	0.1627563
46	0x3e977328	0.29580045
47	0xbe27cc72	-0.16386583
48	0x401a43bc	2.4103842
49	0x401494a5	2.3215725
50	0x3d8b4469	0.068001576
51	0x3e123f44	0.14281946
52	0xbd404134	-0.046937183
53	0xbc40bae8	-0.011763312
54	0xbc25443c	-0.010087069
55	0x3eb6c60d	0.35697976
56	0x3efc335b	0.4925793
57	0x3e72ab04	0.2369805
58	0x3e2331c7	0.15936957
59	0xbe723d39	-0.23656167
60	0x3d292302	0.04129315
61	0x3e34a73e	0.17641923
62	0x3dfa33fc	0.122169465
63	0x3ec7fe06	0.39060992
64	0xbe829ac3	-0.255087
65	0x3d420dc1	0.047376398
66	0x3e7c8f47	0.24664031
67	0xbe05d7a2	-0.13070539
68	0x3dc71886	0.09721474
69	0x3e72c598	0.23708189
70	0x3f4b3d59	0.79390484
71	0xbac4a994	-0.0015004152
72	0x3f041fec	0.5161121
73	0x3d20acb8	0.039227217
74	0xbdbb3b22	-0.09142138
75	0xbe014117	-0.12622486
76	0x3eff3e1b	0.4985207
77	0x3d5eb315	0.054370005
78	0x3f648149	0.89259773
79	0x3f13b14c	0.5769241
80	0x3e859e7f	0.26097485
81	0x3e2f3e01	0.17113496
82	0x3ec7a2ad	0.389913
83	0xbe35fb3d	-0.17771621
84	0xbe775e22	-0.24157003
85	0x3d9b3345	0.07578138
86	0x3f83d757	1.0300092
87	0xbea85da6	-0.32883948
88	0x3ecf6e58	0.40513873
89	0x3eb139fa	0.34614545
90	0x3f027c8f	0.5097131
91	0xbe01905b	-0.12652723
92	0xbe44915f	-0.1919608
93	0xbd955b88	-0.07292849
94	0xbd5ff304	-0.054675117
95	0x3d9b2625	0.07575635
96	0x3ecf1218	0.40443492
97	0x3d1fc99a	0.03901062
98	0x401ba8d7	2.4321802
99	0x40097ae0	2.1481247
100	0xbdf4169a	-0.119183734
101	0xbdb2bee1	-0.087278135
102	0xbe73da49	-0.23813738
103	0x3e7cb284	0.24677473
104	0x3c2e8054	0.010650713
105	0x3c2fea49	0.01073701
106	0xbeb6791b	-0.3563927
107	0xbe2c3d1a	-0.16820183
108	0xbef13f6d	-0.47118703
109	0xbe215a5b	-0.15757124
110	0x3f17b7a7	0.59264606
111	0x3e58e495	0.21180947
112	0x3f2e0620	0.67978096
113	0x3e8bd02d	0.27307263
114	0xbe381966	-0.17978439
115	0x3cd0161d	0.02540117
116	0x3fcca80a	1.5988781
117	0x3dd1ff29	0.10253746
118	0x3e3c590d	0.18393345
119	0x3c56e61e	0.013116388
120	0xbdc155c3	-0.09440186
121	0xbe580651	-0.2109616
122	0xbef9006e	-0.4863314
123	0x3e362f16	0.177914
124	0x3deae7c0	0.11469984
125	0xbcb2e889	-0.021839397
126	0x3eb66b9f	0.35628983
127	0xbe893719	-0.2679985
128	0xbecb685d	-0.3972806
129	0xbebd3b29	-0.36959198
130	0x3f34c0b9	0.7060657
131	0x3e98b7e3	0.29827794
132	0x3ea3037e	0.31838602
133	0x3d672da0	0.056439996
134	0x3a27cba8	0.00064008916
135	0xbe3bb9c4	-0.18332583
136	0x3ebfdac5	0.37471595
137	0x3ecb5451	0.39712766
138	0xbdaa1fe5	-0.08306865
139	0xbc8e7cd5	-0.017393509
140	0x3ec4b16d	0.38416615
141	0x3e83c140	0.25733376
142	0x3e7aee3f	0.24504946
143	0x3e1a8fea	0.15093961
144	0x3d0acda1	0.03388751
145	0x3d4d10c8	0.050064832
146	0x3f0f824d	0.560582
147	0x3e4cd17a	0.20001784
148	0xbe9090aa	-0.2823537
149	0x3e1bf99f	0.15231942
150	0xbf2b6c07	-0.6696171
151	0x3e3b69a1	0.18302013
152	0xbe4d9aeb	-0.20078628
153	0x3db55907	0.08854871
154	0xbeed617d	-0.4636344
155	0x3d29e1fa	0.041475274
156	0xbf18c894	-0.5968106
157	0x3e190095	0.14941628
158	0x3dc96bde	0.09835027
159	0xbe906251	-0.2820001
160	0x3f0e61dd	0.5561808
161	0xbe3d1a69	-0.18467106
162	0xbc571efc	-0.013129946
163	0x3d59c06b	0.05316202
164	0x3e267b0b	0.16257875
165	0x3bbf3784	0.0058354754
166	0x3e67810f	0.22607826
167	0x3e19d542	0.15022758
168	0x40093b16	2.1442313
169	0x4008153e	2.1262965
170	0xbd3bfe5b	-0.04589687
171	0x3dbaaee2	0.091153875
172	0x3def75e2	0.11692406
173	0xbb8a22c5	-0.0042155706
174	0xbdbd6ee9	-0.0924967
175	0x3e72d739	0.23714913
176	0x3e84db9f	0.25948808
177	0x3dd64629	0.10462601
178	0xbe21361a	-0.15743294
179	0xbe80961e	-0.2511453
180	0x3d59bd04	0.053158775
181	0x3d89cbbf	0.067283146
182	0x3e33e571	0.17567994
183	0x3e098109	0.1342813
184	0xbeebd1fd	-0.46058646
185	0xbf3549ec	-0.7081592
186	0xbf2eb065	-0.68237907
187	0xbf2ee26a	-0.6831423
188	0xbef2dc92	-0.47433907
189	0xbee76213	-0.45192012
190	0xbdce9728	-0.100874245
191	0xbd01cc6d	-0.031689096
192	0xbe3c6327	-0.18397199
193	0x3ddf2381	0.10895444
194	0x3bb24914	0.0054408405
195	0x3e004b36	0.1252869
196	0x3e6a0c03	0.22856145
197	0xbe505eaf	-0.20348619
198	0x3db376ca	0.087628916
199	0x3c0ea6e9	0.008706787
200	0x3dd6b501	0.104837425
201	0xbe16e2e3	-0.14734988
202	0x3d9a6fce	0.07540856
203	0x3e443f10	0.19164681
204	0xbf0b414d	-0.54396516
205	0xbe6daf6d	-0.23211451
206	0x3d8da47e	0.0691614
207	0xbd82325a	-0.0635726
208	0xbf82a50a	-1.0206616
209	0xbf2ff507	-0.6873326
210	0x3f1ed0f8	0.6203761
211	0x3e168b12	0.14701489
212	0x3eb879c1	0.3603039
213	0x3e846a17	0.2586219
214	0xbdb867e7	-0.09004193
215	0xbd48ccc4	-0.049023405
216	0x3f862448	1.0479822
217	0x3e1387e6	0.1440731
218	0x3dfb48f0	0.12269771
219	0x3f10df20	0.5659046
220	0x3e51edf5	0.2050093
221	0xbbaa1a44	-0.0051911194
222	0x3e39dd29	0.18150772
223	0x3e54b445	0.20771892
224	0x3e28ee58	0.16497171
225	0x3ea0ebd4	0.31429923
226	0x3f116b5f	0.5680446
227	0x3e024ce1	0.1272464
228	0x3eadb658	0.3392818
229	0x3e340bd3	0.17582636
230	0xbcc23651	-0.02370754
231	0x3d85eb01	0.06538964
232	0xbf0744f2	-0.5283958
233	0xbe891c78	-0.26779532
234	0xbe450c80	-0.1924305
235	0xbd5326da	-0.051550724
236	0xbe2a0b5f	-0.166059
237	0xbeb76099	-0.35815886
238	0xbe186e30	-0.14885783
239	0xbe77788d	-0.2416708
240	0x3f2bf121	0.6716481
241	0x3e6ff8a8	0.23434699
242	0x3f41a244	0.7563822
243	0x3ef5b807	0.47991964
244	0xbe316e32	-0.17327192
245	0x3e64b4f2	0.2233465
246	0x3f07fd7e	0.53121173
247	0x3e0f1d13	0.13975935
248	0x3db8a522	0.090158716
249	0xbdaea99c	-0.08528444
250	0x3f2bb864	0.6707823
251	0xbc8c1f98	-0.017104909
252	0xbe32f314	-0.1747554
253	0x3c365b09	0.011130103
254	0xbdd6ef92	-0.10494913
255	0xbde82195	-0.1133453

fc_h.0.bias f4 [128]
0	0x3e5cf58a	0.2157804
1	0x3e8ea0c9	0.27857044
2	0x3ec38302	0.3818589
3	0x3e9bd97f	0.30439374
4	0x3e55d885	0.20883377
5	0xbeb42be9	-0.3518975
6	0xbe88e582	-0.267376
7	0x3ee625af	0.44950625
8	0xbd76fe8f	-0.06030136
9	0x3f3170ae	0.6931256
10	0xbd5aa2a7	-0.053377774
11	0x3eb31f81	0.34984973
12	0xbe8aabb7	-0.27084133
13	0x3d790352	0.060794182
14	0xbe8c203f	-0.27368352
15	0xbe965004	-0.29357922
16	0x3d7f9f56	0.062407814
17	0x3e2d6a52	0.16935089
18	0xbd1e7270	-0.038683355
19	0x3efd1074	0.49426615
20	0x3e29b59e	0.16573188
21	0x3e426f02	0.18987659
22	0x3d182e3d	0.03715347
23	0xbd9567a0	-0.072951555
24	0x3e3c65a3	0.18398146
25	0x3f59c6dc	0.8506906
26	0xbea5fcfb	-0.3241957
27	0x3e3e8caa	0.18608347
28	0x3d7fc70a	0.062445678
29	0x3d28aad9	0.041178558
30	0x3e746368	0.23866045
31	0xbe750bb7	-0.2393025
32	0x3fa5b3f7	1.2945546
33	0x3e2c981e	0.16854903
34	0x3e81de5c	0.2536496
35	0xbd96444d	-0.07337246
36	0x3e8ec741	0.27886394
37	0xbe8b7c6d	-0.27243367
38	0xbe087227	-0.13324796
39	0x3f047a02	0.5174867
40	0xbdc21012	-0.094757214
41	0x3f079cf0	0.5297384
42	0xbcecc3dc	-0.028901987
43	0xbe27182a	-0.16317812
44	0xbe347502	-0.1762276
45	0x3f197af6	0.5995325
46	0x3e00ccfb	0.12578194
47	0x3edc0e1a	0.4297951
48	0x3e605711	0.21908213
49	0xbd66170c	-0.056174323
50	0xbdc73368	-0.09726602
51	0x3e766ccb	0.24064939
52	0xbb8d94c4	-0.0043207128
53	0xbe04f309	-0.12983336
54	0x3f1f3988	0.6219716
55	0x3f394c65	0.72382194
56	0x3e01e34a	0.1268436
57	0xbe22b0f0	-0.15887809
58	0x3f1979e6	0.5995163
59	0x3e410beb	0.18852203
60	0x3f16a647	0.5884747
61	0x3eb6293e	0.3557834
62	0x3e4b07e6	0.19827232
63	0x3db17210	0.08664334
64	0xbe8c55a8	-0.274091
65	0x3d1f5818	0.038902372
66	0x3d50e6ac	0.051001236
67	0xbe2307ac	-0.15920895
68	0x3f084080	0.5322342
69	0x3e986c0d	0.29769936
70	0x3e01d5b9	0.12679185
71	0x3e931b3e	0.28731722
72	0xbc73de51	-0.014884547
73	0x3eb42422	0.35183817
74	0x3e564723	0.20925574
75	0x3ed9cbaf	0.4253821
76	0xbdcccb62	-0.0999973
77	0x3f8972e0	1.0738182
78	0x3fb87423	1.4410442
79	0x3f3529d2	0.7076694
80	0x3d89f16a	0.06735499
81	0xbbfcb107	-0.007711533
82	0x3e9ed676	0.31022996
83	0xbebacb7d	-0.36483374
84	0x3f00a5e3	0.50253123
85	0xbe47014d	-0.1943409
86	0x3e705abb	0.23472111
87	0x3e548abf	0.20756052
88	0xbd427aef	-0.04748052
89	0x3e9c341e	0.30508512
90	0x3ce3e81a	0.027820636
91	0x3e6e717d	0.2328548
92	0x3e94d4ff	0.29068753
93	0x3e025414	0.12727386
94	0xba311343	-0.00067548844
95	0xbe7d9dbb	-0.247672
96	0x3e3afe51	0.18261077
97	0x3e238534	0.15968782
98	0x3e541649	0.20711626
99	0xbdfa4f53	-0.12222161
100	0xbe108d3a	-0.14116374
101	0x3efe38f5	0.4965283
102	0xbb2183fc	-0.002464532
103	0x3e1a97a9	0.15096916
104	0xbe7e4ac8	-0.24833214
105	0xbcbab335	-0.02279053
106	0x3e74c40f	0.23902915
107	0x3d2f69cc	0.042825505
108	0xbf09e8c0	-0.53870773
109	0x3e89eecb	0.26939997
110	0x3f30847f	0.68952173
111	0xbe02e3df	-0.12782238
112	0xbe30dd0e	-0.17271826
113	0x3ea7d962	0.32783037
114	0x3e2a0135	0.16602023
115	0x3f20dbd0	0.6283541
116	0x3f84dcef	1.0379924
117	0x3e7021b2	0.23450354
118	0x3e97578a	0.29558975
119	0x3e875621	0.264329
120	0x3ecb0eb1	0.39659646
121	0x3e82fe0a	0.2558444
122	0x3f4150de	0.7551402
123	0x3df84aa7	0.12123614
124	0x3dee511b	0.116365634
125	0x3f5f6d81	0.87276465
126	0x3d476b47	0.048686292
127	0x3e922d86	0.28550357

fc_h.2.weight f4 [128]
0	0x3f3ed8fb	0.74549836
1	0x3f2a5be6	0.66546476
2	0x3f7d0554	0.98836255
3	0x3f33b1f6	0.7019342
4	0x3f9ba1d0	1.2158756
5	0x3f603826	0.87585676
6	0x3e9afcd4	0.30271018
7	0x3f748c76	0.95526826
8	0x3f5a998c	0.85390544
9	0x3f983765	1.1891905
10	0x3f66931c	0.9006822
11	0x3f627c35	0.88470775
12	0x3f7e67fb	0.9937741
13	0x3f31eea4	0.6950476
14	0x3f335771	0.700553
15	0x3f349f6b	0.7055575
16	0x3f98cecf	1.1938113
17	0x3f54e8ed	0.83167917
18	0x3f844178	1.033248
19	0x3f60a5b2	0.8775283
20	0x3f76382f	0.9617948
21	0x3f61449f	0.8799533
22	0x3f60df40	0.8784065
23	0x3f8d5b39	1.1043464
24	0x3f0a0bf0	0.53924465
25	0x3fa5f148	1.2964258
26	0x3f8390ee	1.0278604
27	0x3f64719b	0.8923585
28	0x3f6a4198	0.9150634
29	0x3f4d388a	0.80164397
30	0x3f4ffe4c	0.812474
31	0x3f92428f	1.1426562
32	0x400e386f	2.2221944
33	0x3f6f3547	0.9344067
34	0x3f5fdf68	0.87450266
35	0x3f3e2b18	0.74284506
36	0x3f6e9f44	0.9321177
37	0x3f7c63df	0.9858989
38	0x3f5b39f5	0.8563531
39	0x3fad4ac9	1.3538448
40	0x3f5b1eb9	0.85593754
41	0x3fa3d12f	1.2798213
42	0x3f8de399	1.1085082
43	0x3f7188bc	0.94349265
44	0x3f7be0b5	0.9838975
45	0x3f8fbd4a	1.1229641
46	0x3f652347	0.89506954
47	0x3f8d0e8b	1.1020063
48	0x3f534c46	0.8253826
49	0x3f47d42b	0.7805812
50	0x3f6523f6	0.89508
51	0x3f76d441	0.96417624
52	0x3f508731	0.81456286
53	0x3f8a36b3	1.0797943
54	0x3fcad92e	1.5847528
55	0x3f9daa2f	1.2317561
56	0x3f60fe1c	0.8788774
57	0x3f681bb0	0.9066725
58	0x3f8f37fd	1.1188961
59	0x3f32a316	0.697801
60	0x3f8d813f	1.1055068
61	0x3fac1e03	1.3446659
62	0x3f802591	1.0011464
63	0x3f9543f5	1.1661364
64	0x3f3457a7	0.70446247
65	0x3f83f442	1.0308917
66	0x3f38ffc7	0.72265285
67	0x3f44c6c1	0.76865774
68	0x3f9a63e4	1.2061734
69	0x3f621c72	0.88324654
70	0x3f60aaa1	0.8776036
71	0x3f9feec3	1.2494739
72	0x3f5d260b	0.86386174
73	0x3f8530cc	1.0405517
74	0x3fa17fcc	1.2617126
75	0x3f8625cc	1.0480285
76	0x3f6b8edf	0.9201488
77	0x3fab8e83	1.3402866
78	0x3fd5a418	1.6690702
79	0x3f966d39	1.1752082
80	0x3f49c4d7	0.7881598
81	0x3fbdae6f	1.4818858
82	0x3f3f509a	0.74732363
83	0x3f7d0177	0.9883036
84	0x3fc460fd	1.5342098
85	0x3f617659	0.8807121
86	0x3f849273	1.0357193
87	0x3f517366	0.8181671
88	0x3f434bf7	0.7628779
89	0x3f74da6f	0.95645803
90	0x3f67b0b6	0.90504014
91	0x3f981f96	1.1884639
92	0x3f6a224d	0.9145859
93	0x3f1b21d2	0.6059848
94	0x3f687759	0.9080711
95	0x3fa042d4	1.2520394
96	0x3f4cd47a	0.80011714
97	0x3f4e66fe	0.80625904
98	0x3f93a8bf	1.1535872
99	0x3f4d353a	0.8015934
100	0x3f9460a2	1.159199
101	0x3fa16527	1.2608994
102	0x3f655c2b	0.8959376
103	0x3f344ecc	0.70432734
104	0x3f4fc812	0.8116466
105	0x3f6c989a	0.9242035
106	0x3f52e32c	0.82377887
107	0x3f5ecf1d	0.8703478
108	0x3f8b8a4e	1.0901582
109	0x3f541810	0.82849216
110	0x3f8148b2	1.010031
111	0x3f4563a6	0.77105176
112	0x3f6f9f06	0.93602026
113	0x3f540dd7	0.8283362
114	0x3f580aa0	0.8439121
115	0x3f8d7951	1.1052648
116	0x3f912ec0	1.1342392
117	0x3f21b6ee	0.63169754
118	0x3f601cf4	0.8754418
119	0x3f93cbbf	1.1546553
120	0x3f71c7bd	0.944454
121	0x3f89f0df	1.0776633
122	0x3f8ac5ea	1.0841649
123	0x3f54cf4a	0.831288
124	0x3f3efecb	0.74607533
125	0x3f924a5d	1.1428944
126	0x3f5a39e8	0.8524461
127	0x3f732fc6	0.9499477

fc_h.2.bias f4 [128]
0	0xbac14ed3	-0.0014748223
1	0x3c2941bd	0.010330615
2	0x3bf7dfd2	0.0075645233
3	0xbc4b0ba4	-0.012392912
4	0x3c5d2f37	0.013500026
5	0x3b7b3d25	0.0038336006
6	0x390e128c	0.00013549085
7	0x3b71cf12	0.0036897105
8	0xbb400211	-0.0029298107
9	0x3c135946	0.008993452
10	0x3af84426	0.0018941208
11	0xbade5d48	-0.0016965056
12	0x3b858342	0.004074485
13	0xb9348abb	-0.00017217819
14	0x38d0315f	9.927409e-05
15	0x39dc6f71	0.000420447
16	0xba760aa9	-0.0009385744
17	0xba836142	-0.0010023492
18	0xbbc24881	-0.0059290533
19	0xbbe3e6c0	-0.006954998
20	0xbc55905a	-0.013034904
21	0x3b9726d8	0.004612785
22	0x3ad2a615	0.0016071225
23	0x3897d431	7.239765e-05
24	0x3af6cee4	0.0018829969
25	0x3c8309f4	0.015995957
26	0xb9fcbd02	-0.00048206007
27	0xba7093a4	-0.00091772736
28	0x3b42186b	0.0029616605
29	0xb9126f3e	-0.00013965086
30	0x3bab7173	0.00523203
31	0xbc15334c	-0.009106468
32	0xbc97d39b	-0.018533519
33	0x3bc5c557	0.0060354876
34	0xbc15da2a	-0.009146253
35	0xba1cdf6b	-0.00059842196
36	0xbb76ed79	-0.0037678166
37	0xba283a6e	-0.0006417398
38	0xbc3acf0b	-0.011401902
39	0x3c3354ab	0.010945479
40	0x39cc959a	0.00039021374
41	0x3c486886	0.012231952
42	0xbc009988	-0.007849105
43	0x3bf695d6	0.007525186
44	0xbbf29c8d	-0.007403916
45	0x3c728e15	0.014804383
46	0x3b49c5f1	0.0030788148
47	0x3ae942f2	0.001779644
48	0x3c0280eb	0.007965307
49	0xbae22e0f	-0.0017256158
50	0x3b0fdfa5	0.002195337
51	0xbbe977ee	-0.0071248924
52	0x3984ed3a	0.0002535375
53	0xba71ee38	-0.0009228918
54	0x3c719f59	0.014747464
55	0xbaada85e	-0.001324903
56	0xba4226ac	-0.0007406275
57	0x3aa1b1e1	0.0012336337
58	0x3ba1e39e	0.004940464
59	0x3a420a46	0.00074020436
60	0x3b8f3c16	0.0043711765
61	0xbc0191a6	-0.00790826
62	0x3b971907	0.004611138
63	0xb89c53a8	-7.454242e-05
64	0x3a94c5f2	0.0011350496
65	0x3be2b653	0.0069187074
66	0xbb9f9625	-0.0048701935
67	0x3bea3197	0.007147025
68	0x3c219b51	0.0098636905
69	0x3a36e1de	0.0006976406
70	0xbbb98036	-0.005661036
71	0xbb8355e2	-0.0040080408
72	0xbb78326d	-0.0037871853
73	0x3c05d24a	0.008167813
74	0xbc2d64ba	-0.010583097
75	0x3b32c55d	0.0027278282
76	0xbc108193	-0.008819955
77	0x3c3d2482	0.011544349
78	0x3c8cdddd	0.017195636
79	0x3b6d9d43	0.0036257065
80	0x3abda590	0.0014468897
81	0xbb54486d	-0.0032391802
82	0xbb038fd5	-0.0020074744
83	0xbc2bd7e4	-0.010488484
84	0xbc2a1820	-0.010381728
85	0xbb390b19	-0.0028235374
86	0x3c1b9b9a	0.0094975475
87	0x3a5b8472	0.0008373923
88	0x3b3e8417	0.002907043
89	0x3a54a255	0.00081113476
90	0x3aa2198a	0.001236723
91	0x3abcb2a1	0.0014396497
92	0xba1bd49e	-0.0005944463
93	0x3b325c08	0.00272155
94	0x390d5d98	0.00013481674
95	0xbb93e082	-0.0045128474
96	0x3b554636	0.003254307
97	0x3b79687e	0.0038056667
98	0xba780511	-0.0009461204
99	0xbaabea97	-0.0013116178
100	0xbc0dd945	-0.008657758
101	0x3c5d8e26	0.01352266
102	0xbba90bff	-0.0051589007
103	0xbb405456	-0.0029347143
104	0xbaa84cfc	-0.0012840326
105	0xba3b1ca4	-0.00071377517
106	0xb910f559	-0.0001382431
107	0xba8eabb0	-0.0010884907
108	0x3c005d2f	0.007834717
109	0xb7eff824	-2.860657e-05
110	0x39e2c728	0.00043254462
111	0x3b2a5f13	0.002599661
112	0x3b1f3731	0.0024294371
113	0x3b327f0f	0.0027236377
114	0xbb972a88	-0.0046132244
115	0xbb5f3cf6	-0.0034063435
116	0x3b38397d	0.0028110438
117	0x3bcbfd93	0.0062252968
118	0xb9d14274	-0.00039913098
119	0x3c169a84	0.009192113
120	0xba957ba9	-0.0011404651
121	0xbac0ff77	-0.0014724572
122	0x3b0eb9af	0.0021778157
123	0xbbe7a753	-0.007069507
124	0x3b1dd96d	0.0024085895
125	0x3bef2450	0.00729803
126	0xbbbd303e	-0.005773573
127	0xbb0bf1d6	-0.0021353862
